src/lib/libtf/reed_detection.tflite (tflite, 57160 bytes, 21 tensors)

model_1/Conv1/Conv2D i1 [16, 3, 3, 3]
000000 00 00 00 00 00 00 00 00 00 00 00 00 00 00 00 00
       0 0 0 0 0 0 0 0 0 0 0 0 0 0 0 0
000010 00 00 00 00 00 00 00 00 00 00 00 2d 00 23 f9 ed
       0 0 0 0 0 0 0 0 0 0 0 45 0 35 -7 -19
000020 16 81 90 ca 04 ff 06 ec 08 06 02 e8 13 fe 13 06
       22 -127 -112 -54 4 -1 6 -20 8 6 2 -24 19 -2 19 6
000030 fe 0b 07 29 f4 19 13 00 00 34 6f 08 17 e1 0c 05
       -2 11 7 41 -12 25 19 0 0 52 111 8 23 -31 12 5
000040 15 08 3a 7f f1 0c 05 03 29 cc 19 42 e4 f7 1b d9
       21 8 58 127 -15 12 5 3 41 -52 25 66 -28 -9 27 -39
000050 16 0b 24 0a 24 64 1d 00 02 f9 11 1f 07 43 7f 21
       22 11 36 10 36 100 29 0 2 -7 17 31 7 67 127 33
000060 f2 eb 03 06 01 06 1a 19 0b fd f9 01 23 41 f6 09
       -14 -21 3 6 1 6 26 25 11 -3 -7 1 35 65 -10 9
000070 4b f4 01 15 08 1e 46 3b 0d 61 2c 21 3e 03 26 4e
       75 -12 1 21 8 30 70 59 13 97 44 33 62 3 38 78
000080 39 21 7f 24 ea 25 2b 06 00 86 fc ff 95 fa 1a e5
       57 33 127 36 -22 37 43 6 0 -122 -4 -1 -107 -6 26 -27
000090 04 d6 81 fe d2 8e fc 09 e8 ff 09 f2 02 fd f8 00
       4 -42 -127 -2 -46 -114 -4 9 -24 -1 9 -14 2 -3 -8 0
0000a0 0b f5 1c c3 26 30 a8 2a 08 eb 09 28 a2 43 42 81
       11 -11 28 -61 38 48 -88 42 8 -21 9 40 -94 67 66 -127
0000b0 4c 06 e3 12 15 dd 0f 0f d4 1c f2 07 00 de 15 04
       76 6 -29 18 21 -35 15 15 -44 28 -14 7 0 -34 21 4
0000c0 96 dc 00 e2 19 00 f0 fb 00 81 a6 f7 f6 ff 04 e8
       -106 -36 0 -30 25 0 -16 -5 0 -127 -90 -9 -10 -1 4 -24
0000d0 26 f6 f4 13 ff e8 1f fc e1 d1 87 e2 d2 8b ed db
       38 -10 -12 19 -1 -24 31 -4 -31 -47 -121 -30 -46 -117 -19 -37
0000e0 94 e5 d4 89 e5 d5 8c f0 de 94 d4 c4 81 d5 c6 84
       -108 -27 -44 -119 -27 -43 -116 -16 -34 -108 -44 -60 -127 -43 -58 -124
0000f0 e0 ce 88 e8 fd 0a ef f9 01 02 04 f6 5e 71 f1 46
       -32 -50 -120 -24 -3 10 -17 -7 1 2 4 -10 94 113 -15 70

model_1/expanded_conv_depthwise_BN/FusedBatchNormV3;model_1/expanded_conv_depthwise/depthwise;model_1/block_5_project/Conv2D i1 [1, 3, 3, 16]
000000 94 13 af 81 27 bd 50 b4 a7 fd f8 1d 81 05 36 b7
       -108 19 -81 -127 39 -67 80 -76 -89 -3 -8 29 -127 5 54 -73
000010 33 19 81 7f 7f 81 7f 81 ac 7f 81 33 97 05 7f e7
       51 25 -127 127 127 -127 127 -127 -84 127 -127 51 -105 5 127 -25
000020 18 e8 5d fe b8 44 a1 4c a1 e5 03 f0 3d 01 9a e3
       24 -24 93 -2 -72 68 -95 76 -95 -27 3 -16 61 1 -102 -29
000030 81 7f eb 0d d4 11 e3 0d e4 01 03 92 cf 08 e2 f2
       -127 127 -21 13 -44 17 -29 13 -28 1 3 -110 -49 8 -30 -14
000040 b2 d7 c8 f1 f8 e7 08 e4 94 a7 14 f4 98 81 01 17
       -78 -41 -56 -15 -8 -25 8 -28 -108 -89 20 -12 -104 -127 1 23
000050 0e 01 43 02 03 22 e6 21 81 06 fe 01 eb 0c fc 2b
       14 1 67 2 3 34 -26 33 -127 6 -2 1 -21 12 -4 43
000060 8d b8 48 02 fa 28 d8 33 b4 00 ff 04 28 02 e5 17
       -115 -72 72 2 -6 40 -40 51 -76 0 -1 4 40 2 -27 23
000070 17 fc 22 fe e5 28 dd 14 84 f3 ff 54 c6 00 e3 91
       23 -4 34 -2 -27 40 -35 20 -124 -13 -1 84 -58 0 -29 -111
000080 15 f9 14 00 04 0f 09 16 8d 04 ff 81 6b 03 11 81
       21 -7 20 0 4 15 9 22 -115 4 -1 -127 107 3 17 -127

model_1/expanded_conv_project/Conv2D i1 [8, 1, 1, 16]
000000 00 ec 00 03 79 fe 00 04 fd 81 a4 fa 00 74 f9 00
       0 -20 0 3 121 -2 0 4 -3 -127 -92 -6 0 116 -7 0
000010 00 e5 fd 4f 47 0d 17 06 03 ff 7f d2 00 1e f5 00
       0 -27 -3 79 71 13 23 6 3 -1 127 -46 0 30 -11 0
000020 00 03 00 f6 c5 06 08 fe 01 06 ee 00 00 7f f7 00
       0 3 0 -10 -59 6 8 -2 1 6 -18 0 0 127 -9 0
000030 00 f3 e8 81 52 14 45 18 00 40 fc 27 00 00 0f 00
       0 -13 -24 -127 82 20 69 24 0 64 -4 39 0 0 15 0
000040 00 35 eb 25 c6 1e 7f 01 01 c2 12 f8 00 fa 10 00
       0 53 -21 37 -58 30 127 1 1 -62 18 -8 0 -6 16 0
000050 00 f4 f6 02 eb ea f0 0e 02 0a fb d7 00 fc 7f 00
       0 -12 -10 2 -21 -22 -16 14 2 10 -5 -41 0 -4 127 0
000060 00 12 fa fc 34 ea e6 f0 ff 8d 78 42 00 7f 42 00
       0 18 -6 -4 52 -22 -26 -16 -1 -115 120 66 0 127 66 0
000070 00 0a ee 7f 09 01 09 07 fe 3e cf 4d 00 f8 28 00
       0 10 -18 127 9 1 9 7 -2 62 -49 77 0 -8 40 0

model_1/block_1_expand/Conv2D i1 [48, 1, 1, 8]
000000 09 81 2c dd 12 e8 d7 16 51 5c f4 8e 0a f2 a6 7f
       9 -127 44 -35 18 -24 -41 22 81 92 -12 -114 10 -14 -90 127
000010 1f 0b de 7f 2c 6f 2d 5e 4f 4d a9 7f b1 f2 f6 06
       31 11 -34 127 44 111 45 94 79 77 -87 127 -79 -14 -10 6
000020 d6 af 4a 19 f7 29 e0 81 0e 04 d6 34 05 e0 36 7f
       -42 -81 74 25 -9 41 -32 -127 14 4 -42 52 5 -32 54 127
000030 35 ed 81 b3 5f 2b 31 e8 7f 09 12 e5 24 f5 54 c1
       53 -19 -127 -77 95 43 49 -24 127 9 18 -27 36 -11 84 -63
000040 15 a3 12 72 fb 2e fc 81 6d 83 14 f5 f5 0b 81 58
       21 -93 18 114 -5 46 -4 -127 109 -125 20 -11 -11 11 -127 88
000050 81 f6 83 14 fa 11 88 50 ed d0 f4 98 81 e7 34 eb
       -127 -10 -125 20 -6 17 -120 80 -19 -48 -12 -104 -127 -25 52 -21
000060 0e 08 d3 45 b5 e6 3a 7f 00 00 00 00 00 00 00 00
       14 8 -45 69 -75 -26 58 127 0 0 0 0 0 0 0 0
000070 00 de f6 03 28 7f 38 2f 28 13 0c 81 4b 2b d1 4d
       0 -34 -10 3 40 127 56 47 40 19 12 -127 75 43 -47 77
000080 00 00 00 00 00 00 00 00 05 16 7f 13 e6 fc 21 18
       0 0 0 0 0 0 0 0 5 22 127 19 -26 -4 33 24
000090 5b 8c 27 17 00 0b 81 06 81 fb 29 4d ca bd 8e 58
       91 -116 39 23 0 11 -127 6 -127 -5 41 77 -54 -67 -114 88
0000a0 26 24 d5 7c dc 81 f5 3e 30 0e 7f fc 00 f2 35 03
       38 36 -43 124 -36 -127 -11 62 48 14 127 -4 0 -14 53 3
0000b0 b3 e6 81 07 08 09 a1 01 8f 7f f0 de 0d 00 7f ab
       -77 -26 -127 7 8 9 -95 1 -113 127 -16 -34 13 0 127 -85
0000c0 07 c9 d6 5a ed c0 5e 7f 0c 28 26 1f 6d 7f b5 d6
       7 -55 -42 90 -19 -64 94 127 12 40 38 31 109 127 -75 -42
0000d0 ad dc 81 f7 0e 13 a1 00 00 e4 e5 02 d9 7f 3d 34
       -83 -36 -127 -9 14 19 -95 0 0 -28 -27 2 -39 127 61 52
0000e0 f7 f0 e9 2f 1b 7f 36 33 4e 20 7f fb f2 fe 4e fc
       -9 -16 -23 47 27 127 54 51 78 32 127 -5 -14 -2 78 -4
0000f0 b5 7f e7 e6 03 f5 65 d7 d9 a2 e5 fd 23 b9 7f 67
       -75 127 -25 -26 3 -11 101 -41 -39 -94 -27 -3 35 -71 127 103

model_1/block_1_depthwise_BN/FusedBatchNormV3;model_1/block_1_depthwise/depthwise;model_1/block_3_depthwise/depthwise i1 [1, 3, 3, 48]
000000 d6 e7 f9 ee 07 d9 b1 bb e6 cc 07 3f 23 b9 73 d5
       -42 -25 -7 -18 7 -39 -79 -69 -26 -52 7 63 35 -71 115 -43
000010 8f aa 25 f9 fe b8 91 b3 de 81 c1 ec 48 0f 60 1a
       -113 -86 37 -7 -2 -72 -111 -77 -34 -127 -63 -20 72 15 96 26
000020 81 a3 f9 36 11 2f 81 4f b4 f2 68 93 fd de a9 6e
       -127 -93 -7 54 17 47 -127 79 -76 -14 104 -109 -3 -34 -87 110
000030 4d 0c e4 e5 3a 81 81 ae 3e b3 8b 6b 26 ae ff 3e
       77 12 -28 -27 58 -127 -127 -82 62 -77 -117 107 38 -82 -1 62
000040 cc 8e 3a 07 0a 8f 81 b9 fd 81 88 d9 cc 15 c7 36
       -52 -114 58 7 10 -113 -127 -71 -3 -127 -120 -39 -52 21 -57 54
000050 1c 81 3f 54 0c 46 a6 7f 81 06 7a 81 01 e9 81 61
       28 -127 63 84 12 70 -90 127 -127 6 122 -127 1 -23 -127 97
000060 e0 2b 07 fb c1 94 c6 ed 59 f8 81 27 0a b9 9b f5
       -32 43 7 -5 -63 -108 -58 -19 89 -8 -127 39 10 -71 -101 -11
000070 81 e9 1b 0c f0 b4 db e7 f6 e5 c4 f3 f8 11 e8 09
       -127 -23 27 12 -16 -76 -37 -25 -10 -27 -60 -13 -8 17 -24 9
000080 6a ab 46 20 0e 22 fd 10 b0 02 04 b0 ef 06 c9 0f
       106 -85 70 32 14 34 -3 16 -80 2 4 -80 -17 6 -55 15
000090 ab 81 d3 d4 f6 37 61 95 e6 93 ea 6e 5a c0 1c 9f
       -85 -127 -45 -44 -10 55 97 -107 -26 -109 -22 110 90 -64 28 -97
0000a0 87 a1 59 b4 29 a7 99 81 2b 8c b3 da 7f c4 7f 54
       -121 -95 89 -76 41 -89 -103 -127 43 -116 -77 -38 127 -60 127 84
0000b0 d4 aa f1 53 db b4 95 5a 2a 3d 69 93 a4 88 53 78
       -44 -86 -15 83 -37 -76 -107 90 42 61 105 -109 -92 -120 83 120
0000c0 7f ac 81 81 7f 29 5c 81 65 81 90 7f 7f f2 fa 7f
       127 -84 -127 -127 127 41 92 -127 101 -127 -112 127 127 -14 -6 127
0000d0 c4 81 7f 81 7f 81 86 8b 7f a0 81 81 88 81 b9 7f
       -60 -127 127 -127 127 -127 -122 -117 127 -96 -127 -127 -120 -127 -71 127
0000e0 1b 91 7f 7f ba 81 a1 59 3d 7f 7f 8e 8f 81 7e 7f
       27 -111 127 127 -70 -127 -95 89 61 127 127 -114 -113 -127 126 127
0000f0 cb 1d c2 a9 8b ea 1e d9 7f eb b4 24 39 ba e6 d4
       -53 29 -62 -87 -117 -22 30 -39 127 -21 -76 36 57 -70 -26 -44

model_1/block_1_project/Conv2D i1 [8, 1, 1, 48]
000000 f9 ff 08 a0 08 17 06 0a fb 0a fe f6 60 00 fd 05
       -7 -1 8 -96 8 23 6 10 -5 10 -2 -10 96 0 -3 5
000010 00 fd f6 fe 51 03 ff 07 1d 20 0d 0a 01 00 02 81
       0 -3 -10 -2 81 3 -1 7 29 32 13 10 1 0 2 -127
000020 0b 0b fa 03 e9 03 f3 1e 04 e3 f6 02 04 02 03 07
       11 11 -6 3 -23 3 -13 30 4 -29 -10 2 4 2 3 7
000030 db f4 fe f8 26 20 df 55 1b 09 e2 eb 0e 00 17 20
       -37 -12 -2 -8 38 32 -33 85 27 9 -30 -21 14 0 23 32
000040 00 2c 12 c3 03 19 7f 17 e6 f8 38 02 19 f9 0e f5
       0 44 18 -61 3 25 127 23 -26 -8 56 2 25 -7 14 -11
000050 0e fd fb ec 07 cb 04 0a f5 f7 a0 fa d5 05 c7 9c
       14 -3 -5 -20 7 -53 4 10 -11 -9 -96 -6 -43 5 -57 -100
000060 bf 0d f9 07 2f f8 1e 22 fc 3a 07 fa 09 00 07 3b
       -65 13 -7 7 47 -8 30 34 -4 58 7 -6 9 0 7 59
000070 00 12 81 17 04 13 0d f1 e3 01 2c 03 0e 1d 1b 08
       0 18 -127 23 4 19 13 -15 -29 1 44 3 14 29 27 8
000080 04 00 f0 f4 0c 02 04 fb 1f 00 e0 01 16 c2 15 10
       4 0 -16 -12 12 2 4 -5 31 0 -32 1 22 -62 21 16
000090 04 00 fc 0b f8 1a fd 00 3c 12 01 f8 17 00 e4 00
       4 0 -4 11 -8 26 -3 0 60 18 1 -8 23 0 -28 0
0000a0 00 02 f8 fe fa 02 08 f6 ef f4 fa 01 f2 fb fb f9
       0 2 -8 -2 -6 2 8 -10 -17 -12 -6 1 -14 -5 -5 -7
0000b0 d0 26 ca f9 03 fb fb 81 fc 09 fe d4 fb 03 fd 01
       -48 38 -54 -7 3 -5 -5 -127 -4 9 -2 -44 -5 3 -3 1
0000c0 fe f5 46 23 01 ea 02 f9 08 fc fd ee aa 00 f3 08
       -2 -11 70 35 1 -22 2 -7 8 -4 -3 -18 -86 0 -13 8
0000d0 00 10 08 01 3f 0e fb fd f3 16 f7 2b f4 00 fc 5e
       0 16 8 1 63 14 -5 -3 -13 22 -9 43 -12 0 -4 94
0000e0 07 08 03 05 15 f5 ed f0 fd 81 03 01 fe fc 03 03
       7 8 3 5 21 -11 -19 -16 -3 -127 3 1 -2 -4 3 3
0000f0 f7 2e 02 f4 02 33 1b 09 ef 1c 05 37 19 00 81 00
       -9 46 2 -12 2 51 27 9 -17 28 5 55 25 0 -127 0

model_1/block_2_expand/Conv2D i1 [48, 1, 1, 8]
000000 52 20 08 02 7f 1d d3 ec f5 ff 02 7f 07 f2 fe 10
       82 32 8 2 127 29 -45 -20 -11 -1 2 127 7 -14 -2 16
000010 1c 81 f5 2f fa c9 43 05 7f f0 f8 09 ef e6 17 0c
       28 -127 -11 47 -6 -55 67 5 127 -16 -8 9 -17 -26 23 12
000020 0c cf 7f f2 f2 cb 09 a8 41 07 00 0a 7f fa ff 05
       12 -49 127 -14 -14 -53 9 -88 65 7 0 10 127 -6 -1 5
000030 fd 55 eb 7f 13 3f c8 cf f3 7f ff fe 02 ef 13 fd
       -3 85 -21 127 19 63 -56 -49 -13 127 -1 -2 2 -17 19 -3
000040 7f 2a f6 07 d2 e8 07 e7 81 0e 0b 19 24 09 04 02
       127 42 -10 7 -46 -24 7 -25 -127 14 11 25 36 9 4 2
000050 bb ff 14 7f 21 24 e9 f2 81 fe fe ad 22 09 e5 c9
       -69 -1 20 127 33 36 -23 -14 -127 -2 -2 -83 34 9 -27 -55
000060 7f 26 0c 07 cc f5 f5 c0 f3 51 81 f6 0e 71 b8 41
       127 38 12 7 -52 -11 -11 -64 -13 81 -127 -10 14 113 -72 65
000070 bb ea f6 7f 08 02 fb ec 00 7f fe fb ff f0 06 c3
       -69 -22 -10 127 8 2 -5 -20 0 127 -2 -5 -1 -16 6 -61
000080 e3 81 ef 0f 0d 95 7f cc 0d 7f 04 f2 0a 45 af e4
       -29 -127 -17 15 13 -107 127 -52 13 127 4 -14 10 69 -81 -28
000090 f5 27 81 ff 05 35 e7 42 cc 1a fc 0c 81 01 02 1b
       -11 39 -127 -1 5 53 -25 66 -52 26 -4 12 -127 1 2 27
0000a0 81 e7 fb f5 44 e5 21 0b c2 0f fa fe 81 01 09 f5
       -127 -25 -5 -11 68 -27 33 11 -62 15 -6 -2 -127 1 9 -11
0000b0 81 f0 02 06 50 e0 26 26 df e0 00 f8 fc 4d 81 af
       -127 -16 2 6 80 -32 38 38 -33 -32 0 -8 -4 77 -127 -81
0000c0 f8 2a 81 0b 09 32 f2 4a 3f f6 ff 7f d3 e7 08 c5
       -8 42 -127 11 9 50 -14 74 63 -10 -1 127 -45 -25 8 -59
0000d0 05 e8 04 08 f8 7f 78 e5 45 0f f8 0d 7f 0d 1f e7
       5 -24 4 8 -8 127 120 -27 69 15 -8 13 127 13 31 -25
0000e0 09 7f c6 14 12 4d ee 68 f6 06 f2 fe fe 61 81 ac
       9 127 -58 20 18 77 -18 104 -10 6 -14 -2 -2 97 -127 -84
0000f0 08 f6 08 81 fc fc fc f7 cc 0a 09 08 81 06 08 0c
       8 -10 8 -127 -4 -4 -4 -9 -52 10 9 8 -127 6 8 12

model_1/block_2_depthwise_BN/FusedBatchNormV3;model_1/block_2_depthwise/depthwise;model_1/block_3_depthwise/depthwise i1 [1, 3, 3, 48]
000000 04 fc 15 6a 04 4f 00 1c 0f 08 0a 08 f8 f7 d3 08
       4 -4 21 106 4 79 0 28 15 8 10 8 -8 -9 -45 8
000010 fd 08 e9 8e f9 e9 7f f7 fe 07 fa 0a fa 05 0e 60
       -3 8 -23 -114 -7 -23 127 -9 -2 7 -6 10 -6 5 14 96
000020 15 1b 26 e3 01 22 ff 02 12 bc f8 f7 10 01 f8 f6
       21 27 38 -29 1 34 -1 2 18 -68 -8 -9 16 1 -8 -10
000030 7f 09 0f 81 1b 56 0b 0b 7d 7f 07 2b cd e8 05 08
       127 9 15 -127 27 86 11 11 125 127 7 43 -51 -24 5 8
000040 7f c8 c5 c9 9b 19 94 0f 12 44 e0 ab 16 15 0a 85
       127 -56 -59 -55 -101 25 -108 15 18 68 -32 -85 22 21 10 -123
000050 06 c2 7f 09 d8 d1 f9 75 b1 a0 e3 04 dd f6 81 15
       6 -62 127 9 -40 -47 -7 117 -79 -96 -29 4 -35 -10 -127 21
000060 e0 fd 08 0e ff 3f 05 11 1b 09 f0 1f f2 fd 11 03
       -32 -3 8 14 -1 63 5 17 27 9 -16 31 -14 -3 17 3
000070 98 1c fd 4f e1 f3 ef fa fd c4 fd 1d ef 05 04 ea
       -104 28 -3 79 -31 -13 -17 -6 -3 -60 -3 29 -17 5 4 -22
000080 08 e8 11 ec ff 2f 28 f5 32 26 f1 0c d4 01 fe fa
       8 -24 17 -20 -1 47 40 -11 50 38 -15 12 -44 1 -2 -6
000090 7d 06 01 9e 0d e3 24 ef 08 08 f3 36 f9 ff 12 df
       125 6 1 -98 13 -29 36 -17 8 8 -13 54 -7 -1 18 -33
0000a0 00 ce c5 aa 0a b7 85 ee 06 60 f1 81 f7 21 0b 96
       0 -50 -59 -86 10 -73 -123 -18 6 96 -15 -127 -9 33 11 -106
0000b0 11 cc fd 7f fd 3b d9 28 c2 81 28 a8 d3 f1 f3 fa
       17 -52 -3 127 -3 59 -39 40 -62 -127 40 -88 -45 -15 -13 -6
0000c0 1c 81 81 70 81 81 81 81 81 a0 7f 81 7f 7f 22 81
       28 -127 -127 112 -127 -127 -127 -127 -127 -96 127 -127 127 127 34 -127
0000d0 ad 7f 7f 93 7f 7f 6f 7f 7f 81 81 1d 81 81 60 7f
       -83 127 127 -109 127 127 111 127 127 -127 -127 29 -127 -127 96 127
0000e0 81 7f e4 d7 7f 81 7f 7f 7f b0 7f 7f 7f 87 65 67
       -127 127 -28 -41 127 -127 127 127 127 -80 127 127 127 -121 101 103
0000f0 36 06 31 f3 05 c3 2d 11 e7 0e 95 f8 01 d8 7f 04
       54 6 49 -13 5 -61 45 17 -25 14 -107 -8 1 -40 127 4

model_1/block_2_project/Conv2D i1 [8, 1, 1, 48]
000000 c8 ee d3 07 fa d7 0a 07 92 7b d2 7a 7f 01 55 ee
       -56 -18 -45 7 -6 -41 10 7 -110 123 -46 122 127 1 85 -18
000010 01 d7 10 f5 fe f5 f1 e7 0e 99 07 45 f4 09 0e cc
       1 -41 16 -11 -2 -11 -15 -25 14 -103 7 69 -12 9 14 -52
000020 05 a5 6f 05 fc f2 08 ef 62 00 29 e1 da 04 e9 ec
       5 -91 111 5 -4 -14 8 -17 98 0 41 -31 -38 4 -23 -20
000030 01 22 7c 0b ff e0 fb b9 1f fe 14 09 f0 0b 01 81
       1 34 124 11 -1 -32 -5 -71 31 -2 20 9 -16 11 1 -127
000040 08 c2 06 ff e5 25 15 d4 f3 f5 13 04 0e f5 14 fc
       8 -62 6 -1 -27 37 21 -44 -13 -11 19 4 14 -11 20 -4
000050 fa 0e 13 07 f5 d9 50 c0 08 2d f9 18 f6 0e 0a f7
       -6 14 19 7 -11 -39 80 -64 8 45 -7 24 -10 14 10 -9
000060 0e cc 0d d6 22 1a 02 ea 0a fb 01 0a f5 3a 02 fd
       14 -52 13 -42 34 26 2 -22 10 -5 1 10 -11 58 2 -3
000070 d5 79 df e2 f2 17 da f4 7f 04 fa fc e4 fb ff d5
       -43 121 -33 -30 -14 23 -38 -12 127 4 -6 -4 -28 -5 -1 -43
000080 ef ee fd 0e f4 05 f1 04 0a ed ea 02 01 1d e1 d6
       -17 -18 -3 14 -12 5 -15 4 10 -19 -22 2 1 29 -31 -42
000090 fd a8 01 0c 03 fb f6 07 f5 f9 0d 18 09 f3 38 02
       -3 -88 1 12 3 -5 -10 7 -11 -7 13 24 9 -13 56 2
0000a0 f1 e7 0a 0e fa 14 e9 fb 01 34 fe 05 fa 02 7f 05
       -15 -25 10 14 -6 20 -23 -5 1 52 -2 5 -6 2 127 5
0000b0 03 0a ff 05 e7 f6 f7 0f f7 04 fb 19 fc fe fa 24
       3 10 -1 5 -25 -10 -9 15 -9 4 -5 25 -4 -2 -6 36
0000c0 93 0b 07 0a 05 d1 02 ff 28 d6 13 ed df 07 f7 ee
       -109 11 7 10 5 -47 2 -1 40 -42 19 -19 -33 7 -9 -18
0000d0 08 05 01 0d 12 e2 0c 00 00 33 03 6e 03 00 01 df
       8 5 1 13 18 -30 12 0 0 51 3 110 3 0 1 -33
0000e0 f9 81 df 0e f9 f8 0a 09 c7 fb ee 0f be fa 09 07
       -7 -127 -33 14 -7 -8 10 9 -57 -5 -18 15 -66 -6 9 7
0000f0 e0 27 13 14 d4 04 06 34 12 0c 0b 0b 01 e0 0a 2a
       -32 39 19 20 -44 4 6 52 18 12 11 11 1 -32 10 42

model_1/block_3_expand/Conv2D i1 [48, 1, 1, 8]
000000 81 02 02 4f da 28 1f e6 1b 64 48 27 19 cd 79 7f
       -127 2 2 79 -38 40 31 -26 27 100 72 39 25 -51 121 127
000010 d8 ff 05 04 81 f4 0b f1 72 04 ea 86 81 14 27 ec
       -40 -1 5 4 -127 -12 11 -15 114 4 -22 -122 -127 20 39 -20
000020 81 43 dd 00 59 e3 2a 06 94 eb 1a f6 81 02 0d 5c
       -127 67 -35 0 89 -29 42 6 -108 -21 26 -10 -127 2 13 92
000030 df 81 30 e8 1b 14 f1 0d c2 fa fc 5e 7f e0 db 02
       -33 -127 48 -24 27 20 -15 13 -62 -6 -4 94 127 -32 -37 2
000040 4d 0c 08 81 f9 eb e3 d2 ea 81 0c ff f8 63 ca 5b
       77 12 8 -127 -7 -21 -29 -46 -22 -127 12 -1 -8 99 -54 91
000050 99 03 0a 17 81 53 3e f8 71 0e 2e 03 c2 cd e5 81
       -103 3 10 23 -127 83 62 -8 113 14 46 3 -62 -51 -27 -127
000060 f9 0b 30 03 12 be 7f 38 43 e4 f9 ec 7d 7f 78 df
       -7 11 48 3 18 -66 127 56 67 -28 -7 -20 125 127 120 -33
000070 7f 19 da 11 a0 03 ca 05 ea 81 14 ee 08 0f f7 12
       127 25 -38 17 -96 3 -54 5 -22 -127 20 -18 8 15 -9 18
000080 dc f9 05 fc 81 fc 0f fd e5 68 98 07 01 81 69 b7
       -36 -7 5 -4 -127 -4 15 -3 -27 104 -104 7 1 -127 105 -73
000090 7f e0 d3 16 c1 1d 02 5d 7f c6 e4 f6 24 08 0a f8
       127 -32 -45 22 -63 29 2 93 127 -58 -28 -10 36 8 10 -8
0000a0 78 1b fd 7f 0c 25 0e c7 2a 15 ad f1 e5 64 81 a9
       120 27 -3 127 12 37 14 -57 42 21 -83 -15 -27 100 -127 -87
0000b0 81 0e 22 fe dc 01 c4 ea e2 c8 04 11 81 38 4c ee
       -127 14 34 -2 -36 1 -60 -22 -30 -56 4 17 -127 56 76 -18
0000c0 7f f1 e4 fa c8 f7 03 07 15 e8 00 e3 7f 37 2f dc
       127 -15 -28 -6 -56 -9 3 7 21 -24 0 -29 127 55 47 -36
0000d0 fc 9f 0b d6 04 81 58 c5 ed 81 1d ef fe c9 23 f6
       -4 -97 11 -42 4 -127 88 -59 -19 -127 29 -17 -2 -55 35 -10
0000e0 82 35 08 01 fd f0 7f 44 f0 23 11 00 02 26 9c 81
       -126 53 8 1 -3 -16 127 68 -16 35 17 0 2 38 -100 -127
0000f0 7f d6 0e f5 9b 0e cd da e7 ff 4f f7 1d 8c 7f 36
       127 -42 14 -11 -101 14 -51 -38 -25 -1 79 -9 29 -116 127 54

model_1/block_3_depthwise_BN/FusedBatchNormV3;model_1/block_3_depthwise/depthwise i1 [1, 3, 3, 48]
000000 45 a5 5f 45 34 df 6a c0 3c ab b0 31 34 d7 ba a6
       69 -91 95 69 52 -33 106 -64 60 -85 -80 49 52 -41 -70 -90
000010 66 4e 30 4d 44 b3 ae 33 de d9 bf bf bd 3e c3 8e
       102 78 48 77 68 -77 -82 51 -34 -39 -65 -65 -67 62 -61 -114
000020 f1 2a 47 41 bd 36 ce ea 31 b4 3c 3c a0 0d 4e df
       -15 42 71 65 -67 54 -50 -22 49 -76 60 60 -96 13 78 -33
000030 52 9f 7f 55 b2 bd c6 ad 62 9f bf 4a 4f 93 a3 5c
       82 -97 127 85 -78 -67 -58 -83 98 -97 -65 74 79 -109 -93 92
000040 dc 60 51 7f 54 8b 34 48 cb b2 bd af 36 4f e3 81
       -36 96 81 127 84 -117 52 72 -53 -78 -67 -81 54 79 -29 -127
000050 aa 4f 53 54 ad 51 ad f1 4c a2 53 5a b6 81 5e 9d
       -86 79 83 84 -83 81 -83 -15 76 -94 83 90 -74 -127 94 -99
000060 23 cf 44 27 11 d8 d3 da 2b e3 03 24 1d b0 c8 ff
       35 -49 68 39 17 -40 -45 -38 43 -29 3 36 29 -80 -56 -1
000070 cc 26 22 46 22 c8 1f 1a e4 d2 d4 e8 1f 20 59 a8
       -52 38 34 70 34 -56 31 26 -28 -46 -44 -24 31 32 89 -88
000080 ad 2b 25 22 e2 26 db f7 2a da 21 2c f9 f8 25 b7
       -83 43 37 34 -30 38 -37 -9 42 -38 33 44 -7 -8 37 -73
000090 5d 96 d7 5b 37 af 7f a6 58 8e b5 54 55 92 f4 81
       93 -106 -41 91 55 -81 127 -90 88 -114 -75 84 85 -110 -12 -127
0000a0 7f 6a 4b d8 55 6c 81 4a 4b b6 a3 9e 81 57 bc f6
       127 106 75 -40 85 108 -127 74 75 -74 -93 -98 -127 87 -68 -10
0000b0 a8 46 6b 61 ab 50 af 58 54 9b 5a 5a a7 6b 5e a3
       -88 70 107 97 -85 80 -81 88 84 -101 90 90 -89 107 94 -93
0000c0 7f 81 bf 7f 81 81 a5 81 7f 81 81 7f 7f 81 ea 62
       127 -127 -65 127 -127 -127 -91 -127 127 -127 -127 127 127 -127 -22 98
0000d0 c2 7f 7f cd 7f 7f 47 7f 7f 81 81 81 34 7f e4 11
       -62 127 127 -51 127 127 71 127 127 -127 -127 -127 52 127 -28 17
0000e0 81 7f 7f 7f 81 7f 81 7f 7f 81 7f 7f 81 f4 7f 81
       -127 127 127 127 -127 127 -127 127 127 -127 127 127 -127 -12 127 -127
0000f0 3f b4 de 41 23 c3 d2 c0 3a d4 c5 3b 2f c6 f0 0a
       63 -76 -34 65 35 -61 -46 -64 58 -44 -59 59 47 -58 -16 10

model_1/block_3_project/Conv2D i1 [16, 1, 1, 48]
000000 ee 02 f3 0d 14 f9 03 67 cd 0e 25 fa 11 e6 f9 07
       -18 2 -13 13 20 -7 3 103 -51 14 37 -6 17 -26 -7 7
000010 10 f0 fc 00 3c f3 0b 7f ef 4f f7 ef 1d e8 1a ec
       16 -16 -4 0 60 -13 11 127 -17 79 -9 -17 29 -24 26 -20
000020 e8 37 19 d5 17 2b 16 f1 9f e2 07 2c 1a 14 90 c9
       -24 55 25 -43 23 43 22 -15 -97 -30 7 44 26 20 -112 -55
000030 db ed 05 05 de 14 0a 38 c4 db 01 cf e8 ef fb fb
       -37 -19 5 5 -34 20 10 56 -60 -37 1 -49 -24 -17 -5 -5
000040 e7 77 f2 0d 0b 12 dc e6 18 d4 13 1d e5 ae ce 16
       -25 119 -14 13 11 18 -36 -26 24 -44 19 29 -27 -82 -50 22
000050 f1 ef 1c fd fa d8 fe 11 e2 e6 7f 0e 0c 01 12 fa
       -15 -17 28 -3 -6 -40 -2 17 -30 -26 127 14 12 1 18 -6
000060 ee f8 f5 d9 fb be fe eb fc 0a 0e 15 0e 13 ee 0b
       -18 -8 -11 -39 -5 -66 -2 -21 -4 10 14 21 14 19 -18 11
000070 fe ea e8 f9 f4 02 ff 81 f7 46 f5 06 fd ed fd fa
       -2 -22 -24 -7 -12 2 -1 -127 -9 70 -11 6 -3 -19 -3 -6
000080 f5 36 0a fb 11 0d 16 07 d8 fe ef fe 00 f8 0a 0c
       -11 54 10 -5 17 13 22 7 -40 -2 -17 -2 0 -8 10 12
000090 f5 21 ff e5 01 01 fa 01 f0 fc 04 2a 81 0a fd f7
       -11 33 -1 -27 1 1 -6 1 -16 -4 4 42 -127 10 -3 -9
0000a0 fe 0a f2 03 df 02 04 10 f5 f8 00 16 ff 15 06 0c
       -2 10 -14 3 -33 2 4 16 -11 -8 0 22 -1 21 6 12
0000b0 02 ff 12 17 f4 18 26 09 08 05 14 e0 04 fa 08 0f
       2 -1 18 23 -12 24 38 9 8 5 20 -32 4 -6 8 15
0000c0 28 dd 14 10 18 19 13 e6 e8 f9 f2 eb fd 09 00 0b
       40 -35 20 16 24 25 19 -26 -24 -7 -14 -21 -3 9 0 11
0000d0 13 f3 ae 05 f6 10 0d 52 f9 e6 03 2f 06 a4 11 02
       19 -13 -82 5 -10 16 13 82 -7 -26 3 47 6 -92 17 2
0000e0 10 dd 2a 81 14 1e fe 13 ed 18 0a e4 f0 e9 11 fc
       16 -35 42 -127 20 30 -2 19 -19 24 10 -28 -16 -23 17 -4
0000f0 23 fc ec 3b 01 fb 0f 18 05 f5 2c 0f fc 3b 05 04
       35 -4 -20 59 1 -5 15 24 5 -11 44 15 -4 59 5 4

model_1/block_4_expand/Conv2D i1 [96, 1, 1, 16]
000000 21 fe 7f 4f 38 ea 18 e4 57 f9 cc c7 2f 33 d6 ba
       33 -2 127 79 56 -22 24 -28 87 -7 -52 -57 47 51 -42 -70
000010 20 42 ee 0f 53 1c 0b 27 20 32 f4 7f 0d dd 4d 8f
       32 66 -18 15 83 28 11 39 32 50 -12 127 13 -35 77 -113
000020 0e b4 e7 27 c1 2f c4 59 be 90 1d 7f f6 87 67 90
       14 -76 -25 39 -63 47 -60 89 -66 -112 29 127 -10 -121 103 -112
000030 7d 5f f6 26 81 f0 c5 f9 f6 06 6f b9 c4 52 df d5
       125 95 -10 38 -127 -16 -59 -7 -10 6 111 -71 -60 82 -33 -43
000040 07 e9 1c 07 f7 30 f0 33 c4 e8 0d ed fd 81 1d f0
       7 -23 28 7 -9 48 -16 51 -60 -24 13 -19 -3 -127 29 -16
000050 65 d8 fa fc fa 9c d6 f3 03 fa 81 ee 08 e9 05 24
       101 -40 -6 -4 -6 -100 -42 -13 3 -6 -127 -18 8 -23 5 36
000060 81 b8 10 5d f4 fc bb fb 9b b9 c2 e3 e3 1a 15 56
       -127 -72 16 93 -12 -4 -69 -5 -101 -71 -62 -29 -29 26 21 86
000070 d6 1d b4 37 24 81 e1 23 06 e7 0c f7 02 0e d6 10
       -42 29 -76 55 36 -127 -31 35 6 -25 12 -9 2 14 -42 16
000080 0f db fa fb fe 0c d9 c5 f9 12 c7 fc 81 f6 09 18
       15 -37 -6 -5 -2 12 -39 -59 -7 18 -57 -4 -127 -10 9 24
000090 17 cf 3c 7f e3 0d e5 a4 74 87 24 bd de 5d 95 25
       23 -49 60 127 -29 13 -27 -92 116 -121 36 -67 -34 93 -107 37
0000a0 81 a3 3b d7 68 42 e6 4e 4a b3 a2 34 42 95 92 77
       -127 -93 59 -41 104 66 -26 78 74 -77 -94 52 66 -107 -110 119
0000b0 26 f2 81 1e 29 18 fb 17 f7 f1 f5 02 04 0c d6 1f
       38 -14 -127 30 41 24 -5 23 -9 -15 -11 2 4 12 -42 31
0000c0 4c c4 02 f8 12 af ce e7 1a e7 81 09 c4 c8 04 21
       76 -60 2 -8 18 -81 -50 -25 26 -25 -127 9 -60 -56 4 33
0000d0 0c cf fe bc 30 18 ac 81 17 a3 1d fc 0a f1 1c 0f
       12 -49 -2 -68 48 24 -84 -127 23 -93 29 -4 10 -15 28 15
0000e0 cf 10 a3 d1 50 81 31 b8 30 33 f2 b0 02 53 ed 26
       -49 16 -93 -47 80 -127 49 -72 48 51 -14 -80 2 83 -19 38
0000f0 43 09 3d 49 4c a0 db 0e 16 c7 90 02 81 f3 dd 44
       67 9 61 73 76 -96 -37 14 22 -57 -112 2 -127 -13 -35 68

model_1/block_4_depthwise_BN/FusedBatchNormV3;model_1/block_4_depthwise/depthwise;model_1/block_6_expand/Conv2D i1 [1, 3, 3, 96]
000000 ef 06 ec 6b f0 16 bf ca 11 fa 62 f7 02 f8 fe 3b
       -17 6 -20 107 -16 22 -65 -54 17 -6 98 -9 2 -8 -2 59
000010 08 10 dc 01 4c ff 21 dd 04 13 2b 2f 14 0f 19 31
       8 16 -36 1 76 -1 33 -35 4 19 43 47 20 15 25 49
000020 fb 1c 0c f1 06 31 ca e7 16 0a 1b 11 ae c7 19 fc
       -5 28 12 -15 6 49 -54 -25 22 10 27 17 -82 -57 25 -4
000030 f7 eb f9 fa 33 05 f7 01 fd dc 1a e1 1a ff 7f 19
       -9 -21 -7 -6 51 5 -9 1 -3 -36 26 -31 26 -1 127 25
000040 f3 f4 09 cd 44 24 03 f9 4f e1 48 04 10 81 1e 3e
       -13 -12 9 -51 68 36 3 -7 79 -31 72 4 16 -127 30 62
000050 02 0f 7f f1 27 1c e4 ee 26 fb f1 52 fe 15 ff 0b
       2 15 127 -15 39 28 -28 -18 38 -5 -15 82 -2 21 -1 11
000060 d0 0c f8 0b 34 fa f5 81 26 0c 81 fd f1 f4 06 5e
       -48 12 -8 11 52 -6 -11 -127 38 12 -127 -3 -15 -12 6 94
000070 11 e3 ee ee 50 9d 7f 19 c3 e1 96 f0 1b 23 cf 12
       17 -29 -18 -18 80 -99 127 25 -61 -31 -106 -16 27 35 -49 18
000080 75 0d f4 fe e9 7f c4 81 0b ee e2 0e 2e 81 7f d4
       117 13 -12 -2 -23 127 -60 -127 11 -18 -30 14 46 -127 127 -44
000090 b4 33 31 08 28 bf 20 37 25 2b 9e 54 7f 24 04 ec
       -76 51 49 8 40 -65 32 55 37 43 -98 84 127 36 4 -20
0000a0 2b d9 a5 00 26 e1 ed 31 ce d0 69 fd e1 c4 df 3e
       43 -39 -91 0 38 -31 -19 49 -50 -48 105 -3 -31 -60 -33 62
0000b0 c0 3e ed 08 f6 30 38 d8 e6 36 f3 4c 81 e3 19 81
       -64 62 -19 8 -10 48 56 -40 -26 54 -13 76 -127 -29 25 -127
0000c0 00 fb e9 b6 08 11 27 15 fe fe 05 40 00 f5 f6 09
       0 -5 -23 -74 8 17 39 21 -2 -2 5 64 0 -11 -10 9
0000d0 f4 12 ee 0e 06 14 19 de 02 df 09 0a f8 07 2f af
       -12 18 -18 14 6 20 25 -34 2 -33 9 10 -8 7 47 -81
0000e0 2a 12 0b e8 0c 05 e6 ed 09 04 ee 09 17 df 15 01
       42 18 11 -24 12 5 -26 -19 9 4 -18 9 23 -33 21 1
0000f0 07 f8 06 fb 04 05 fa 08 f8 2c 08 ff 0b ee 04 ef
       7 -8 6 -5 4 5 -6 8 -8 44 8 -1 11 -18 4 -17

model_1/block_4_project/Conv2D i1 [16, 1, 1, 96]
000000 f9 14 fa 0d 2c 4f e8 f1 1e 08 11 f2 06 01 21 42
       -7 20 -6 13 44 79 -24 -15 30 8 17 -14 6 1 33 66
000010 fa ee f5 fc 4e c5 05 f2 ea e7 d8 95 f9 f4 34 3a
       -6 -18 -11 -4 78 -59 5 -14 -22 -25 -40 -107 -7 -12 52 58
000020 7f f1 0a fd fd ec ef 11 dd 14 0c e0 02 db f3 15
       127 -15 10 -3 -3 -20 -17 17 -35 20 12 -32 2 -37 -13 21
000030 f7 07 fa 09 e3 ef ff 02 19 1c f3 e5 ca 13 e4 f7
       -9 7 -6 9 -29 -17 -1 2 25 28 -13 -27 -54 19 -28 -9
000040 07 02 37 02 03 ff 08 f5 cb 04 02 f9 f7 b3 11 ee
       7 2 55 2 3 -1 8 -11 -53 4 2 -7 -9 -77 17 -18
000050 1b eb bd e4 17 f2 05 1d 01 fd 10 d9 0c 0b ff 7a
       27 -21 -67 -28 23 -14 5 29 1 -3 16 -39 12 11 -1 122
000060 44 9e 22 5e 00 b2 e8 c4 ea a8 ec 32 fd c8 dd d6
       68 -98 34 94 0 -78 -24 -60 -22 -88 -20 50 -3 -56 -35 -42
000070 a1 0d 27 13 dd 87 da 1f 6a c4 c6 10 e1 7f e7 33
       -95 13 39 19 -35 -121 -38 31 106 -60 -58 16 -31 127 -25 51
000080 fb 17 c9 15 f1 ed 2d d8 1a a5 4d d9 c9 17 3b eb
       -5 23 -55 21 -15 -19 45 -40 26 -91 77 -39 -55 23 59 -21
000090 1d 1b 05 b9 38 b7 2e dc 21 14 df 8a 08 b7 1b c2
       29 27 5 -71 56 -73 46 -36 33 20 -33 -118 8 -73 27 -62
0000a0 fe b2 24 24 38 39 ca f2 87 1e de 46 1e 52 0c 0a
       -2 -78 36 36 56 57 -54 -14 -121 30 -34 70 30 82 12 10
0000b0 35 18 bd 11 b5 3f f5 2a c8 0b 1c 08 02 de 2c 06
       53 24 -67 17 -75 63 -11 42 -56 11 28 8 2 -34 44 6
0000c0 16 17 08 e8 03 f8 f3 1f 49 fa 0a 4a fc 0c 37 0e
       22 23 8 -24 3 -8 -13 31 73 -6 10 74 -4 12 55 14
0000d0 f4 f9 06 04 f7 b8 0f d4 f8 f3 ec 1f ee 18 6f ca
       -12 -7 6 4 -9 -72 15 -44 -8 -13 -20 31 -18 24 111 -54
0000e0 19 c2 e2 36 1a 7f ce e2 0b ea fb 2d cb d6 ce 11
       25 -62 -30 54 26 127 -50 -30 11 -22 -5 45 -53 -42 -50 17
0000f0 17 16 e9 e5 1b 07 00 db df 06 08 26 0b 03 53 67
       23 22 -23 -27 27 7 0 -37 -33 6 8 38 11 3 83 103

model_1/block_5_expand/Conv2D i1 [96, 1, 1, 16]
000000 07 2c d8 37 0a 17 16 ec 32 17 c5 69 0a aa 3d 81
       7 44 -40 55 10 23 22 -20 50 23 -59 105 10 -86 61 -127
000010 1c 32 ff ea 1c d7 7f 9d 0b 64 ff e9 14 cd 17 1b
       28 50 -1 -22 28 -41 127 -99 11 100 -1 -23 20 -51 23 27
000020 81 12 f4 de 1c 19 22 58 e8 19 67 ec ae 0a 31 a9
       -127 18 -12 -34 28 25 34 88 -24 25 103 -20 -82 10 49 -87
000030 d4 24 23 40 b1 1a 57 7f 0a 34 95 06 1f a4 99 aa
       -44 36 35 64 -79 26 87 127 10 52 -107 6 31 -92 -103 -86
000040 f4 ec 1c 34 db 62 f0 22 1e e8 04 07 0e fb 81 df
       -12 -20 28 52 -37 98 -16 34 30 -24 4 7 14 -5 -127 -33
000050 db f5 29 e8 f6 ea 0e 11 b3 4b e6 81 f3 23 db f6
       -37 -11 41 -24 -10 -22 14 17 -77 75 -26 -127 -13 35 -37 -10
000060 16 f2 18 f9 2d 4f b9 8e 04 ee 36 d6 7f d7 f5 e4
       22 -14 24 -7 45 79 -71 -114 4 -18 54 -42 127 -41 -11 -28
000070 26 fb 7f 07 e3 e2 ff f0 97 23 a8 d3 f2 f0 31 e5
       38 -5 127 7 -29 -30 -1 -16 -105 35 -88 -45 -14 -16 49 -27
000080 02 0d 35 2e d0 4d 22 24 25 fe fa a7 01 01 81 c6
       2 13 53 46 -48 77 34 36 37 -2 -6 -89 1 1 -127 -58
000090 28 8c 55 6b 21 e6 04 2e 7e 01 46 07 e8 1f 81 b6
       40 -116 85 107 33 -26 4 46 126 1 70 7 -24 31 -127 -74
0000a0 ec c2 07 f9 a2 fe fc 4e 2a 7f 12 fc e3 51 48 f6
       -20 -62 7 -7 -94 -2 -4 78 42 127 18 -4 -29 81 72 -10
0000b0 26 03 0f 9b 1d ed af 81 e1 09 f3 dc 0f e7 39 ba
       38 3 15 -101 29 -19 -81 -127 -31 9 -13 -36 15 -25 57 -70
0000c0 f8 08 03 b4 ed ce 99 e2 dd 8d 00 fa 00 7f 79 18
       -8 8 3 -76 -19 -50 -103 -30 -35 -115 0 -6 0 127 121 24
0000d0 af a6 b5 13 de ae e8 d0 49 0b ea ed 49 09 7f 2b
       -81 -90 -75 19 -34 -82 -24 -48 73 11 -22 -19 73 9 127 43
0000e0 17 b3 23 37 19 39 1c 7f 10 32 22 c8 06 20 b7 7a
       23 -77 35 55 25 57 28 127 16 50 34 -56 6 32 -73 122
0000f0 24 e0 03 3e 1a ea 76 06 10 81 02 ce f9 fa 08 e9
       36 -32 3 62 26 -22 118 6 16 -127 2 -50 -7 -6 8 -23

model_1/block_5_depthwise_BN/FusedBatchNormV3;model_1/block_5_depthwise/depthwise;model_1/block_6_expand/Conv2D i1 [1, 3, 3, 96]
000000 cf b7 f5 7f 15 4c 4d c4 f0 ee f2 fa e3 01 23 ff
       -49 -73 -11 127 21 76 77 -60 -16 -18 -14 -6 -29 1 35 -1
000010 f7 d4 1b 16 0f 81 7f 08 b3 09 31 e3 85 81 27 19
       -9 -44 27 22 15 -127 127 8 -77 9 49 -29 -123 -127 39 25
000020 0b 1f 3f ee e1 f6 1e f6 f3 1c 94 49 1a be 26 2c
       11 31 63 -18 -31 -10 30 -10 -13 28 -108 73 26 -66 38 44
000030 ee 31 e8 14 06 fb 10 32 a2 cf c0 eb f6 02 0d 25
       -18 49 -24 20 6 -5 16 50 -94 -49 -64 -21 -10 2 13 37
000040 45 e8 49 0e fb 10 13 7f 17 16 18 ff f5 11 7f fa
       69 -24 73 14 -5 16 19 127 23 22 24 -1 -11 17 127 -6
000050 f2 10 e6 16 7f 12 b4 ef 01 de f0 da 01 e9 f1 1a
       -14 16 -26 22 127 18 -76 -17 1 -34 -16 -38 1 -23 -15 26
000060 7f 81 4a 67 d6 7f 26 88 43 04 f1 7f 7f 9d f3 0e
       127 -127 74 103 -42 127 38 -120 67 4 -15 127 127 -99 -13 14
000070 0b 7f 7f 8f 7f b4 4e 44 81 8b bd de cd 2f c4 ed
       11 127 127 -113 127 -76 78 68 -127 -117 -67 -34 -51 47 -60 -19
000080 a8 36 81 ac d4 f2 ce 3c 01 7f 7f 4f cf 91 8f cf
       -88 54 -127 -84 -44 -14 -50 60 1 127 127 79 -49 -111 -113 -49
000090 f1 81 2b 56 45 e1 2d 53 cf 2c af 8c d5 d8 c4 42
       -15 -127 43 86 69 -31 45 83 -49 44 -81 -116 -43 -40 -60 66
0000a0 4a c3 1a 1f b1 1f ef 5a 76 7f 0c 16 01 38 de 33
       74 -61 26 31 -79 31 -17 90 118 127 12 22 1 56 -34 51
0000b0 40 7f 7f ea f6 4d 91 7f 86 9e 05 81 a5 81 db 6a
       64 127 127 -22 -10 77 -111 127 -122 -98 5 -127 -91 -127 -37 106
0000c0 b4 f2 1c ad 0f ea 40 f7 4d dd e7 12 ee fc f8 f1
       -76 -14 28 -83 15 -22 64 -9 77 -35 -25 18 -18 -4 -8 -15
0000d0 f8 f1 09 fa e6 94 20 01 83 60 08 c9 75 33 f2 09
       -8 -15 9 -6 -26 -108 32 1 -125 96 8 -55 117 51 -14 9
0000e0 ff 12 11 e3 f7 22 11 0a 1b 0e 87 41 13 f1 24 0d
       -1 18 17 -29 -9 34 17 10 27 14 -121 65 19 -15 36 13
0000f0 f1 07 ef 06 f6 02 fd 17 ba 08 dc 32 04 2b 25 fe
       -15 7 -17 6 -10 2 -3 23 -70 8 -36 50 4 43 37 -2

model_1/block_5_project/Conv2D i1 [16, 1, 1, 96]
000000 f0 ee 10 dc 15 eb d3 03 0b 08 ef 0b ff f3 df 0b
       -16 -18 16 -36 21 -21 -45 3 11 8 -17 11 -1 -13 -33 11
000010 f5 fe 03 03 0e d8 0d ff fd fe fb 7f 1a db 2a ef
       -11 -2 3 3 14 -40 13 -1 -3 -2 -5 127 26 -37 42 -17
000020 ff 0f fe fe ef 12 e3 f6 eb 06 fd 2f 0f 12 09 fb
       -1 15 -2 -2 -17 18 -29 -10 -21 6 -3 47 15 18 9 -5
000030 16 fb f6 04 12 e8 ee 59 0c 08 ed ea 04 0d 02 eb
       22 -5 -10 4 18 -24 -18 89 12 8 -19 -22 4 13 2 -21
000040 d6 b9 e7 2c fb 09 09 f8 ff e4 f4 e0 ea 0f 0a 00
       -42 -71 -25 44 -5 9 9 -8 -1 -28 -12 -32 -22 15 10 0
000050 ef e2 0e 14 f6 eb ef 9f 01 f2 04 f8 2c e4 e1 ed
       -17 -30 14 20 -10 -21 -17 -97 1 -14 4 -8 44 -28 -31 -19
000060 1e bd a2 c2 7f fd 5c 1c e9 96 c6 e6 fb 07 c0 25
       30 -67 -94 -62 127 -3 92 28 -23 -106 -58 -26 -5 7 -64 37
000070 b5 10 26 23 26 35 e2 bf 1a f6 f3 bc 33 ec b7 33
       -75 16 38 35 38 53 -30 -65 26 -10 -13 -68 51 -20 -73 51
000080 e9 14 0c f6 0f de f9 22 ef 19 da e3 cd 65 12 e4
       -23 20 12 -10 15 -34 -7 34 -17 25 -38 -29 -51 101 18 -28
000090 1d b5 07 c5 f0 28 44 09 bc e9 cf c3 16 f2 f7 c9
       29 -75 7 -59 -16 40 68 9 -68 -23 -49 -61 22 -14 -9 -55
0000a0 95 75 e0 e6 10 f2 f3 06 2f 82 ed 0c 19 cb 1f 11
       -107 117 -32 -26 16 -14 -13 6 47 -126 -19 12 25 -53 31 17
0000b0 0f ed 2e 04 d4 35 f7 1c 25 cb f5 1e 11 04 1d 72
       15 -19 46 4 -44 53 -9 28 37 -53 -11 30 17 4 29 114
0000c0 fa 43 b4 f4 51 4c 1e 52 0a 8f 08 e7 f4 01 29 13
       -6 67 -76 -12 81 76 30 82 10 -113 8 -25 -12 1 41 19
0000d0 13 f9 c8 3b 15 02 45 1f 38 20 eb e3 25 04 3a d0
       19 -7 -56 59 21 2 69 31 56 32 -21 -29 37 4 58 -48
0000e0 21 22 f7 35 81 ac 2c 2a 08 cf 18 e4 04 d1 04 53
       33 34 -9 53 -127 -84 44 42 8 -49 24 -28 4 -47 4 83
0000f0 ef 1c f3 06 5a 0a fb 2c 16 16 1b 02 1a 1a 26 d9
       -17 28 -13 6 90 10 -5 44 22 22 27 2 26 26 38 -39

model_1/block_6_expand/Conv2D i1 [96, 1, 1, 16]
000000 de 6d 01 81 d4 fd cb ad d6 15 0d 46 12 af e6 4d
       -34 109 1 -127 -44 -3 -53 -83 -42 21 13 70 18 -81 -26 77
000010 df 0a b9 fc dd e3 13 ae 45 2a ca 1a 00 10 3e 81
       -33 10 -71 -4 -35 -29 19 -82 69 42 -54 26 0 16 62 -127
000020 09 f7 e4 3c 51 2b b1 c7 7f e8 ff e4 e5 74 ac 34
       9 -9 -28 60 81 43 -79 -57 127 -24 -1 -28 -27 116 -84 52
000030 22 c8 10 a9 0d f9 f5 eb 76 ee 34 1a ea 35 2b 7f
       34 -56 16 -87 13 -7 -11 -21 118 -18 52 26 -22 53 43 127
000040 c3 2c 0b 29 0d f5 0b 28 0c fc 07 e3 81 f7 fb 20
       -61 44 11 41 13 -11 11 40 12 -4 7 -29 -127 -9 -5 32
000050 fc 4a 78 01 0a 50 af 3e d8 3e f0 ec 2c e2 81 08
       -4 74 120 1 10 80 -81 62 -40 62 -16 -20 44 -30 -127 8
000060 2a d7 7f 95 31 10 dd 6a a7 a9 27 cf f8 4f de 62
       42 -41 127 -107 49 16 -35 106 -89 -87 39 -49 -8 79 -34 98
000070 2e 7f f1 d4 63 10 0f e1 6e 59 db 09 14 e5 29 33
       46 127 -15 -44 99 16 15 -31 110 89 -37 9 20 -27 41 51
000080 02 b9 15 a7 0e bb 11 ba 23 43 50 01 1b 7f 37 23
       2 -71 21 -89 14 -69 17 -70 35 67 80 1 27 127 55 35
000090 0e d8 02 7f 2f ff 22 ca bc 6d 1b e4 f5 ce f9 01
       14 -40 2 127 47 -1 34 -54 -68 109 27 -28 -11 -50 -7 1
0000a0 f1 2b d5 81 00 fa fb 18 24 d8 11 e7 ed d7 e5 12
       -15 43 -43 -127 0 -6 -5 24 36 -40 17 -25 -19 -41 -27 18
0000b0 00 10 10 e8 45 e1 42 c7 b9 18 05 23 05 7f c5 dd
       0 16 16 -24 69 -31 66 -57 -71 24 5 35 5 127 -59 -35
0000c0 2e 10 93 ef 1b b6 21 01 15 2b aa cf c5 7f 0a 20
       46 16 -109 -17 27 -74 33 1 21 43 -86 -49 -59 127 10 32
0000d0 f1 02 ec 0b 03 81 fa 15 02 f5 05 04 0f f5 06 08
       -15 2 -20 11 3 -127 -6 21 2 -11 5 4 15 -11 6 8
0000e0 0f de 56 d1 38 fa 81 93 f8 ca 2b 1e 13 c4 fc d2
       15 -34 86 -47 56 -6 -127 -109 -8 -54 43 30 19 -60 -4 -46
0000f0 b3 f8 db be f9 f0 7f 32 e6 1e 57 ef 18 53 45 ee
       -77 -8 -37 -66 -7 -16 127 50 -26 30 87 -17 24 83 69 -18

model_1/head/Conv2D i1 [32, 1, 1, 96]
000000 fe 2f 23 b0 c0 16 07 42 ed ea 93 aa a4 76 cf 42
       -2 47 35 -80 -64 22 7 66 -19 -22 -109 -86 -92 118 -49 66
000010 30 62 13 06 e6 a6 e1 22 62 9c 0a 70 46 bc 48 fc
       48 98 19 6 -26 -90 -31 34 98 -100 10 112 70 -68 72 -4
000020 b7 58 2f b8 ee 11 a0 e8 a4 dd 6e bc 3c ef ae 70
       -73 88 47 -72 -18 17 -96 -24 -92 -35 110 -68 60 -17 -82 112
000030 9f 70 be 24 f1 47 11 33 c4 a5 19 26 02 65 27 89
       -97 112 -66 36 -15 71 17 51 -60 -91 25 38 2 101 39 -119
000040 4e 93 a4 29 35 ae 02 7f d7 09 dd 70 de cf e8 d0
       78 -109 -92 41 53 -82 2 127 -41 9 -35 112 -34 -49 -24 -48
000050 96 40 55 15 d8 b9 d0 cd 29 30 24 2a ab ac d7 37
       -106 64 85 21 -40 -71 -48 -51 41 48 36 42 -85 -84 -41 55
000060 49 20 51 43 14 cb 09 6f 33 2c c6 53 9a b2 22 cd
       73 32 81 67 20 -53 9 111 51 44 -58 83 -102 -78 34 -51
000070 d4 e7 07 d8 59 5d c3 c7 2e f4 ed ce 46 13 f2 b2
       -44 -25 7 -40 89 93 -61 -57 46 -12 -19 -50 70 19 -14 -78
000080 c7 b3 af cc 30 bd d2 1e 01 60 ff 2c 27 fa dc 26
       -57 -77 -81 -52 48 -67 -46 30 1 96 -1 44 39 -6 -36 38
000090 19 81 eb c2 f3 8b bf 99 43 38 4a 1e 33 bb dc 1e
       25 -127 -21 -62 -13 -117 -65 -103 67 56 74 30 51 -69 -36 30
0000a0 58 f4 10 67 35 60 52 5e 0e 20 43 35 2e d4 79 41
       88 -12 16 103 53 96 82 94 14 32 67 53 46 -44 121 65
0000b0 b7 71 ba 43 24 32 a8 15 c5 c7 3b df da fc 07 28
       -73 113 -70 67 36 50 -88 21 -59 -57 59 -33 -38 -4 7 40
0000c0 10 c9 af 8c cb 1a 51 01 1b ce cb dd 3e 59 c6 97
       16 -55 -81 -116 -53 26 81 1 27 -50 -53 -35 62 89 -58 -105
0000d0 ac 2a dc 07 b4 d7 26 24 af 3a de d9 eb c6 b2 07
       -84 42 -36 7 -76 -41 38 36 -81 58 -34 -39 -21 -58 -78 7
0000e0 2e ba 3b 00 be 1d b2 4c 42 e5 77 5a c4 ec 3f 22
       46 -70 59 0 -66 29 -78 76 66 -27 119 90 -60 -20 63 34
0000f0 f5 b9 1e 60 ac a5 00 b0 de 1a 43 7b 73 5a c9 63
       -11 -71 30 96 -84 -91 0 -80 -34 26 67 123 115 90 -55 99

model_1/logits/Conv2D i1 [4, 1, 1, 32]
000000 b7 0d 39 40 38 af 57 58 b6 33 4c 7f d2 20 ba 09
       -73 13 57 64 56 -81 87 88 -74 51 76 127 -46 32 -70 9
000010 d9 24 27 20 fa 32 0e b4 2e 06 c4 4f df 14 1a c6
       -39 36 39 32 -6 50 14 -76 46 6 -60 79 -33 20 26 -58
000020 60 81 11 14 4a a7 c4 1a a9 6a bd ec 62 b1 40 73
       96 -127 17 20 74 -89 -60 26 -87 106 -67 -20 98 -79 64 115
000030 22 bb b0 d0 e4 46 54 7c 90 41 7c b4 f1 bd dd d5
       34 -69 -80 -48 -28 70 84 124 -112 65 124 -76 -15 -67 -35 -43
000040 ee b4 05 05 a2 cb e6 e3 0c 0e dc cf 55 97 a9 06
       -18 -76 5 5 -94 -53 -26 -29 12 14 -36 -49 85 -105 -87 6
000050 60 27 81 52 e9 0b d3 e1 2d 91 64 cf 96 64 61 62
       96 39 -127 82 -23 11 -45 -31 45 -111 100 -49 -106 100 97 98
000060 7f a5 6e cf 9e 3f 02 61 61 52 07 fb f8 ab 5e 90
       127 -91 110 -49 -98 63 2 97 97 82 7 -5 -8 -85 94 -112
000070 10 3c 20 f0 f2 4d ba 3d c7 a9 28 28 b7 63 ec 94
       16 60 32 -16 -14 77 -70 61 -57 -87 40 40 -73 99 -20 -108
